…
Lorenzo Imbonati","userId":"08752240810207742329"},"user_tz":-60},"id":"e8Qz5pZ7xNVX","outputId":"bd0428e4-646f-4997-fe2f-007c1220e74b"},"outputs":[{"output_type":"stream","name":"stdout","text":["Model: \"model_2\"\n","_________________________________________________________________\n"," Layer (type)                Output Shape              Param #   \n","=================================================================\n"," input_5 (InputLayer)        [(None, 224, 224, 3)]     0         \n","                                                                 \n"," tf.math.truediv_4 (TFOpLamb  (None, 224, 224, 3)      0         \n"," da)                                                             \n","                                                                 \n"," tf.nn.bias_add_2 (TFOpLambd  (None, 224, 224, 3)      0         \n"," a)                                                              \n","                                                                 \n"," tf.math.truediv_5 (TFOpLamb  (None, 224, 224, 3)      0         \n"," da)                                                             \n","                                                                 \n"," densenet201 (Functional)    (None, 7, 7, 1920)        18321984  \n","                                                                 \n"," average_pooling2d_2 (Averag  (None, 3, 3, 1920)       0         \n"," ePooling2D)                                                     \n","                                                                 \n"," global_average_pooling2d_2   (None, 1920)             0         \n"," (GlobalAveragePooling2D)                                        \n","                                                                 \n"," dense_6 (Dense)             (None, 1024)              1967104   \n","                                                                 \n"," batch_normalization_4 (Batc  (None, 1024)             4096      \n"," hNormalization)                                                 \n","                                                                 \n"," dropout_4 (Dropout)         (None, 1024)              0         \n","                                                                 \n"," dense_7 (Dense)             (None, 512)               524800    \n","                                                                 \n"," batch_normalization_5 (Batc  (None, 512)              2048      \n"," hNormalization)                                                 \n","                                                                 \n"," dropout_5 (Dropout)         (None, 512)               0         \n","                                                                 \n"," dense_8 (Dense)             (None, 100)               51300     \n","                                                                 \n","=================================================================\n","Total params: 20,871,332\n","Trainable params: 9,055,396\n","Non-trainable params: 11,815,936\n","_________________________________________________________________\n"]}],"source":["net.summary()"]},{"cell_type":"code","execution_count":null,"metadata
…
playName":"Lorenzo Imbonati","userId":"08752240810207742329"}},"outputId":"66ac2530-3595-4897-bdb5-e53045e2ac79"},"execution_count":null,"outputs":[{"output_type":"stream","name":"stdout","text":["Model: \"model_4\"\n","_________________________________________________________________\n"," Layer (type)                Output Shape              Param #   \n","=================================================================\n"," input_9 (InputLayer)        [(None, 224, 224, 3)]     0         \n","                                                                 \n"," tf.__operators__.getitem_1   (None, 224, 224, 3)      0         \n"," (SlicingOpLambda)                                               \n","                                                                 \n"," tf.nn.bias_add_4 (TFOpLambd  (None, 224, 224, 3)      0         \n"," a)                                                              \n","                                                                 \n"," resnet50 (Functional)       (None, 7, 7, 2048)        23587712  \n","                                                                 \n"," average_pooling2d_4 (Averag  (None, 3, 3, 2048)       0         \n"," ePooling2D)                                                     \n","                                                                 \n"," global_average_pooling2d_4   (None, 2048)             0         \n"," (GlobalAveragePooling2D)                                        \n","                                                                 \n"," dense_12 (Dense)            (None, 1024)              2098176   \n","                                                                 \n"," batch_normalization_8 (Batc  (None, 1024)             4096      \n"," hNormalization)                                                 \n","                                                                 \n"," dropout_8 (Dropout)         (None, 1024)              0         \n","                                                                 \n"," dense_13 (Dense)            (None, 512)               524800    \n","                                                                 \n"," batch_normalization_9 (Batc  (None, 512)              2048      \n"," hNormalization)                                                 \n","                                                                 \n"," dropout_9 (Dropout)         (None, 512)               0         \n","                                                                 \n"," dense_14 (Dense)            (None, 100)               51300     \n","                                                                 \n","=================================================================\n","Total params: 26,268,132\n","Trainable params: 26,211,940\n","Non-trainable params: 56,192\n","_________________________________________________________________\n"]}]},{"cell_type":"code","source":["net.compile(loss=keras.losses.categorical_crossentr
…
