…
Lorenzo Imbonati","userId":"08752240810207742329"},"user_tz":-60},"id":"e8Qz5pZ7xNVX","outputId":"1d9708c0-f60d-42c2-bcbe-5231f310fb99"},"outputs":[{"output_type":"stream","name":"stdout","text":["Model: \"model_1\"\n","_________________________________________________________________\n"," Layer (type)                Output Shape              Param #   \n","=================================================================\n"," input_4 (InputLayer)        [(None, 224, 224, 3)]     0         \n","                                                                 \n"," tf.math.truediv_2 (TFOpLamb  (None, 224, 224, 3)      0         \n"," da)                                                             \n","                                                                 \n"," tf.nn.bias_add_1 (TFOpLambd  (None, 224, 224, 3)      0         \n"," a)                                                              \n","                                                                 \n"," tf.math.truediv_3 (TFOpLamb  (None, 224, 224, 3)      0         \n"," da)                                                             \n","                                                                 \n"," densenet201 (Functional)    (None, 7, 7, 1920)        18321984  \n","                                                                 \n"," average_pooling2d_1 (Averag  (None, 3, 3, 1920)       0         \n"," ePooling2D)                                                     \n","                                                                 \n"," global_average_pooling2d_1   (None, 1920)             0         \n"," (GlobalAveragePooling2D)                                        \n","                                                                 \n"," dense_3 (Dense)             (None, 1024)              1967104   \n","                                                                 \n"," batch_normalization_2 (Batc  (None, 1024)             4096      \n"," hNormalization)                                                 \n","                                                                 \n"," dropout_2 (Dropout)         (None, 1024)              0         \n","                                                                 \n"," dense_4 (Dense)             (None, 512)               524800    \n","                                                                 \n"," batch_normalization_3 (Batc  (None, 512)              2048      \n"," hNormalization)                                                 \n","                                                                 \n"," dropout_3 (Dropout)         (None, 512)               0         \n","                                                                 \n"," dense_5 (Dense)             (None, 100)               51300     \n","                                                                 \n","=================================================================\n","Total params: 20,871,332\n","Trainable params: 20,639,204\n","Non-trainable params: 232,128\n","_________________________________________________________________\n"]}],"source":["net.summary()"]},{"cell_type":"code","execution_count":null,"metadata":
…
