…
isplayName":"Lorenzo Imbonati","userId":"14901810200626502081"}},"outputId":"d9302df3-a93f-437f-eeca-4d833e69660a"},"execution_count":null,"outputs":[{"output_type":"stream","name":"stdout","text":["Model: \"model\"\n","_________________________________________________________________\n"," Layer (type)                Output Shape              Param #   \n","=================================================================\n"," input_2 (InputLayer)        [(None, 224, 224, 3)]     0         \n","                                                                 \n"," tf.math.truediv (TFOpLambda  (None, 224, 224, 3)      0         \n"," )                                                               \n","                                                                 \n"," tf.nn.bias_add (TFOpLambda)  (None, 224, 224, 3)      0         \n","                                                                 \n"," tf.math.truediv_1 (TFOpLamb  (None, 224, 224, 3)      0         \n"," da)                                                             \n","                                                                 \n"," densenet201 (Functional)    (None, 7, 7, 1920)        18321984  \n","                                                                 \n"," average_pooling2d (AverageP  (None, 3, 3, 1920)       0         \n"," ooling2D)                                                       \n","                                                                 \n"," global_average_pooling2d (G  (None, 1920)             0         \n"," lobalAveragePooling2D)                                          \n","                                                                 \n"," dense (Dense)               (None, 1024)              1967104   \n","                                                                 \n"," batch_normalization (BatchN  (None, 1024)             4096      \n"," ormalization)                                                   \n","                                                                 \n"," dropout (Dropout)           (None, 1024)              0         \n","                                                                 \n"," dense_1 (Dense)             (None, 512)               524800    \n","                                                                 \n"," batch_normalization_1 (Batc  (None, 512)              2048      \n"," hNormalization)                                                 \n","                                                                 \n"," dropout_1 (Dropout)         (None, 512)               0         \n","                                                                 \n"," dense_2 (Dense)             (None, 100)               51300     \n","                                                                 \n","=================================================================\n","Total params: 20,871,332\n","Trainable params: 20,639,204\n","Non-trainable params: 232,128\n","_________________________________________________________________\n"]}]},{"cell_type":"code","source":["layer_name = 'dense_1'\n","newmodel = Model(inputs
…
isplayName":"Lorenzo Imbonati","userId":"14901810200626502081"}},"outputId":"e013de81-1d1a-44aa-9f1b-5a9effd5ba3b"},"execution_count":null,"outputs":[{"output_type":"stream","name":"stdout","text":["Model: \"model\"\n","_________________________________________________________________\n"," Layer (type)                Output Shape              Param #   \n","=================================================================\n"," input_2 (InputLayer)        [(None, 224, 224, 3)]     0         \n","                                                                 \n"," tf.math.truediv (TFOpLambda  (None, 224, 224, 3)      0         \n"," )                                                               \n","                                                                 \n"," tf.nn.bias_add (TFOpLambda)  (None, 224, 224, 3)      0         \n","                                                                 \n"," tf.math.truediv_1 (TFOpLamb  (None, 224, 224, 3)      0         \n"," da)                                                             \n","                                                                 \n"," densenet201 (Functional)    (None, 7, 7, 1920)        18321984  \n","                                                                 \n"," average_pooling2d (AverageP  (None, 3, 3, 1920)       0         \n"," ooling2D)                                                       \n","                                                                 \n"," global_average_pooling2d (G  (None, 1920)             0         \n"," lobalAveragePooling2D)                                          \n","                                                                 \n"," dense (Dense)               (None, 1024)              1967104   \n","                                                                 \n"," batch_normalization (BatchN  (None, 1024)             4096      \n"," ormalization)                                                   \n","                                                                 \n"," dropout (Dropout)           (None, 1024)              0         \n","                                                                 \n"," dense_1 (Dense)             (None, 512)               524800    \n","                                                                 \n","=================================================================\n","Total params: 20,817,984\n","Trainable params: 20,586,880\n","Non-trainable params: 231,104\n","_________________________________________________________________\n"]}]},{"cell_type":"code","source":["# t1=time()\n","\n","# train_images = []\n","# for 
…
